TaxiFarePrediction.pt (torch, 112864 bytes, 19 tensors)

weight f4 [24, 12]
00000000: a4c9 de3e 63e0 1ebe 639c 06bf 4722 123f
00000010: 1096 323f 1bdb 09bf 0f2e b03f 0575 b23d
00000020: 1a27 93bf 5967 983f d925 003f 01e8 81be
00000030: ec19 3c3e 755c babf 08f5 2b3e f4a6 3c3f
00000040: 2be9 8dbe 4ab9 abbf fe28 8f3f e796 06bf
00000050: d74d 5e3e 76e4 a33f d584 25bf 328d 0c3f
00000060: a636 be3e ec42 96bf 32ff e5be 44e0 8f3e
00000070: e82a 90bd 8029 26bf f012 a9bf 2396 8bbf
00000080: 2173 6cbf bd8f b93e 19bb 70bf e2bb 2f3f
00000090: 8a76 92bf c1b4 bebe 2583 87bf f248 af3f
000000a0: caaa 11be 2402 523e e1db 023f c7e2 403f
000000b0: 0a85 e73e 4bbc b83d 6699 943d df65 0cbe
000000c0: 3338 83bf 8d98 68bf c88d b03f 53e5 a8bf
000000d0: 92e8 a0be 04c7 c7bf aeec d4be 7367 963f
000000e0: a257 193d 044e 29bf b3b9 483f 7cca fa3e
000000f0: b8e8 893e 38f6 55be 059b 443f 5e2f 27c0
00000100: 6c44 1dbe 4a08 13c0 6de4 dabf 96dc a93c
00000110: 8243 86bf c3ce 313f deed 313e 8095 563f
00000120: 11c6 8d3e 8cd8 8e3f 6a06 1a3f 8179 2cbf
00000130: 2c31 07bf dbb1 0abf b0fe 0e3f c9e1 17be
00000140: ee75 c73f 03e2 a5bf de10 f1bd 979b 9b3f
00000150: e2cb dd3f b084 bbbd c94b 843d 5af3 87bf
00000160: d1f7 36bf 3f31 0d3d 6c2a 0e3f 6696 9abf
00000170: 4e25 12bf 9b53 74bf 71a5 ebbe 3127 8abf
00000180: 8299 3dbf a1da 68bf f82c 2940 aa3c ad3f
00000190: c567 52ba c286 17bf 7451 fbbe abe4 153e
000001a0: 6855 0c3f a504 a13f 6389 0e3f 41cf 0abf
000001b0: 64f7 863f e936 953d 3c0b 8e3f eda9 81bd
000001c0: 0f15 9dbf 31a4 1f3f 1945 85be 5e96 82bf
000001d0: abe2 5e3f 2866 bd3f e4cb 9fbf 30e3 6c3e
000001e0: 7426 b2be 2675 c73f 4939 b0be 4551 8bbe
000001f0: 7a8a 1b3f 684c 52bf fbe6 71bf 18ed 213f
00000200: 4802 f43e 4573 f0be c6d6 dfbf 71ae 21bf
00000210: 2687 a63e f24b 593f dcba 40bf 3d7d eb3f
00000220: fbf5 513f bd9b 743f e674 673f 824a 72bf
00000230: c030 a6bf d44c ffbf 92ea 80bd f6a4 19bf
00000240: cb99 b7bf 4dff 70be d0c9 693f d1e3 583f
00000250: a0a3 793d c893 8e3f 384d 6abf b776 1240
00000260: a504 17be 37ed c13e 3407 a73f 8da8 b0bf
00000270: b444 e03f 1ca9 9e3e 08fb 35bf 8f12 77bf
00000280: 838a 59bf 9390 8cbd fe0d 6f3e 8ace af3e
00000290: e849 8abd d4e7 a63d 5013 d2bf eeb4 c7bf
000002a0: f56c 163e cd4d b4bf d83d 853f 0f5e 773f
000002b0: 92d2 d7bf 5dfa bb3c bdbb ac3f a889 7abe
000002c0: f3f5 8ebf 645e b93e 8f22 8e3f b277 53bf
000002d0: 5491 e1bd 2db1 82be 5f19 e9bd 1cb6 ea3d
000002e0: 4d24 643f c77c 853f 1223 20be 3ce6 f5bf
000002f0: ab09 573e 425c 51bf c186 ccbf 1d48 49bf
00000300: b4b6 adbf ece8 adbf 7bbb 07bf 4568 b7bf
00000310: 162a 7ebf f323 163b f069 963f 6ef5 e03f
00000320: 36f1 95bd 1ac7 883e 4534 d1be 043c b4be
00000330: 297a d4be 0d61 07c0 b95f 78bf 268f 9ebf
00000340: d997 db3d 9ea8 df3e 7176 cbbf 6b9d 23be
00000350: 4d02 3ebf b461 eabe 1b23 c2be caa4 a43f
00000360: 4e72 d9bf ffda 28bf be0c febe 70a3 7bbf
00000370: 423e 493f b3f3 f3be 3c04 ea3e 2f08 50bd
00000380: 2fb0 7fbf cbc8 f73c 3c41 83bf da65 71bf
00000390: 3c10 c3bf 72c3 a63e 941a 70bf 2a81 8abe
000003a0: ec50 b23e 04c9 613e 22e2 fa3f 25f8 73be
000003b0: f5db ab3f 67b8 ccbe b90e 41bd 6af7 9f3f
000003c0: 8b52 efbf 57e4 1fbf b06d 15bd 8c36 12bf
000003d0: e94a 80be 6c81 6e3d b79c 0dbf 4e7b 24c0
000003e0: c30a f83e d527 093f 3147 54bf 6dd0 813f
000003f0: 16a4 9abf e45d 7ebe 431f 91bf d26c c0be
0.43513215 -0.15515284 -0.5258238 0.57083553 0.6976023 -0.53849953 1.3764056 0.08713726
-1.1496308 1.1906539 0.5005775 -0.25372317 0.18369263 -1.4559466 0.16792691 0.7369225
-0.27716956 -1.3415921 1.1184385 -0.5257401 0.21709381 1.2804096 -0.6465581 0.54902947
0.37151068 -1.1739173 -0.4492126 0.2810079 -0.07039434 -0.64907074 -1.3208904 -1.0905193
-0.9236317 0.36242476 -0.9403549 0.6864606 -1.1442425 -0.3724728 -1.0586897 1.3694136
-0.14225307 0.20508629 0.5111676 0.75346035 0.45218688 0.09020289 0.07255821 -0.13710736
-1.0251526 -0.90857774 1.3793268 -1.3194984 -0.31427437 -1.560761 -0.41586822 1.175032
0.03743709 -0.6613467 0.78408355 0.48982608 0.26935363 -0.20894706 0.7679904 -2.612266
-0.15358132 -2.297381 -1.710096 0.020735066 -1.0489352 0.6945612 0.17375895 0.8382187
0.27690175 1.1159835 0.6016604 -0.673729 -0.52809405 -0.54177636 0.5585737 -0.14832224
1.5582864 -1.2959598 -0.11770795 1.2156857 1.7327845 -0.091561675 0.06459767 -1.062114
-0.7147189 0.034470793 0.5553348 -1.2077148 -0.5708817 -0.9544007 -0.4602466 -1.079321
-0.7406236 -0.909586 2.6433697 1.3534138 -0.0008026327 -0.5919 -0.4908558 0.14638011
0.5481782 1.2579542 0.55678385 -0.54222494 1.0544248 0.07285864 1.1097178 -0.06331239
-1.2272052 0.6235991 -0.2602928 -1.0202138 0.8706462 1.4796801 -1.2484097 0.2313354
-0.34794962 1.5582626 -0.34418705 -0.2721044 0.60758173 -0.82147837 -0.94493073 0.632524
0.4765799 -0.46962944 -1.7487419 -0.631568 0.32524985 0.8488151 -0.75285125 1.8397595
0.8201596 0.9555014 0.9041275 -0.9464494 -1.2983627 -1.9945321 -0.06294741 -0.60017335
-1.4343809 -0.2353489 0.91323566 0.8472262 0.06094706 1.1138849 -0.91524076 2.2884958
-0.14747865 0.37876293 1.3049073 -1.3801438 1.7520967 0.30988395 -0.7108617 -0.96512693
-0.8497698 -0.06863513 0.23345181 0.34337264 -0.06752378 0.081496865 -1.6412144 -1.560209
0.14690001 -1.4086243 1.0409498 0.966279 -1.6861136 0.022946531 1.3494793 -0.24466574
-1.1168808 0.36204827 1.1104296 -0.82604516 -0.11014047 -0.255258 -0.11381792 0.11460516
0.8911789 1.0428704 -0.15638378 -1.9210887 0.20999782 -0.817814 -1.5978624 -0.7862566
-1.3571382 -1.3586707 -0.5302045 -1.4328696 -0.9928297 0.002290961 1.175108 1.7574899
-0.07321398 0.26714402 -0.4086019 -0.35202038 -0.4149945 -2.1152985 -0.9702106 -1.2387435
0.10722322 0.43683332 -1.589552 -0.15978019 -0.7422226 -0.45777667 -0.37917408 1.286279
-1.6988008 -0.6595916 -0.49619097 -0.9829626 0.7861062 -0.47646865 0.45706356 -0.050789054
-0.9987821 0.030247113 -1.0254283 -0.9429604 -1.5239329 0.32570988 -0.93790555 -0.2705167
0.34827363 0.22049338 1.960026 -0.23825128 1.34265 -0.39984438 -0.04713318 1.249738
-1.8697065 -0.62457794 -0.03648156 -0.5711448 -0.25057152 0.058228895 -0.5531725 -2.570026
0.4844571 0.53576404 -0.8292113 1.0141732 -1.2081325 -0.24840504 -1.1337665 -0.37583023

weight f4 [2, 1]
00000000: 9ada 22be ca71 b03e
-0.15903702 0.34461814

weight f4 [7]
00000000: a1d6 6d3f 9d68 593f 8b05 8b3f 24fa 7f3f
00000010: 3c80 953f 0309 803f e300 8e3f
0.9290562 0.8492525 1.0861067 0.9999106 1.1679759 1.000275 1.1094021

bias f4 [7]
00000000: 3dbe a6bc 882d 11be 7e85 bebd a408 053e
00000010: 4319 6dbd 855c b1bd ec53 3ebe
-0.020354385 -0.14177525 -0.09302805 0.12991577 -0.05788542 -0.08660225 -0.18586701

running_mean f4 [7]
00000000: 3402 3f40 7d95 ac3f eaf3 93c2 7601 2342
00000010: edf2 93c2 ef01 2342 cc00 5440
2.9845095 1.348312 -73.976395 40.751427 -73.974464 40.75189 3.3125486

running_var f4 [7]
00000000: b228 6a40 19a5 133f 90db 843a 1cf0 2d3a
00000010: ef51 8a3a 544f 703a ae3e 3141
3.6587338 0.57673794 0.0010136236 0.00066352054 0.0010552983 0.0009167094 11.077803

weight f4 [200, 20]
00000000: ffa3 023d ee7b 7b3d 26e1 bf3c afca 093d
00000010: b3ef 63bc 019a 47bc d3bf 163c 8cc0 99bb
00000020: 92c0 2bbc ac84 5e3c 5301 5b3d 97f0 dabc
00000030: 0a3b 7d3c d458 f63c 5d3c f0bd 4235 2e3e
00000040: 5c6b 31bd 8de0 e43d a1aa 1fbe d766 75be
00000050: 13f2 eb3d 296b a03c 1162 2d3d d5b0 d5bd
00000060: 75b4 bf3d 1e80 10bc 844c b73d 6f24 3bbd
00000070: 6fde 053e 4d25 6ebd b068 ef3d 19c0 be3d
00000080: 55a8 06be 9920 f43d 5f8a ae3d 2117 18be
00000090: 5275 9abd 87bb 173e bb69 63bd 7019 923d
000000a0: 3141 cabc 460a 553d 6257 823d a0b8 72bd
000000b0: d415 d23c faa0 1f3d 19a7 2a3d bcdf 93bc
000000c0: 2a5d cf38 c64a 8b3c 7d2a 8a3c da0b 46bd
000000d0: 1b06 7c3d 81c3 febc 031e 9dbd 41b3 a23d
000000e0: 2269 f13d ade9 c4bd 7f62 2bbd 63dd 953e
000000f0: fa1c 2ebc 66ee 4e3c b5b6 99ba 6c82 b3ba
00000100: 4c4e 073c 2b18 d83a 625c 0cbb c81c 29ba
00000110: d5e4 a53b 48ec 983b 2459 d93b bd64 f5bb
00000120: 8a11 5b3d 0502 8b3b 3748 6abb 5075 b03d
00000130: 8918 10bd 546e 1abd eb88 89bc 55f1 b9be
00000140: ccea 973d 6096 17be 2efb a33d 0d54 673d
00000150: 589b a7bd 8599 943d 5ede 8f3d 9c39 173d
00000160: 4a78 c4bd 7eae 103e 24f2 49be 6ac5 babc
00000170: 82e7 8bbd ce12 ddbd b860 64bb 7372 853d
00000180: cbf1 b4bd a8e6 2d3e c7d0 863d 7b53 21be
00000190: 86f5 7cbc 59c1 8bbd 6fd4 8abc f3b3 213d
000001a0: f23f 32bd 070f 43bc 35e0 373b 79ff 86bc
000001b0: 79c8 2b3c 9132 b23b 9b0d 01bd 7a23 1f3c
000001c0: ecbf 74bc 6e28 b7bd e736 c7b9 c90c 983d
000001d0: 9d0f ed3d f6c6 07bd b1f7 20be 17c0 a8be
000001e0: 8a86 ef3d b0c3 13bd 4ea6 56be 8b86 193d
000001f0: b473 e43d 7e55 8bbd 2faf b9bd f307 e33d
00000200: 45b3 27be ee8e 093e 7b95 aa3d bf52 37bd
00000210: c781 51be 2f04 d53d fa58 ae3d 23fd 98bd
00000220: dfed 033e 4869 70bd e6af c33c b3c4 2cbe
00000230: 3522 27be da1f 50bd d33d 1dbe 6271 8f3e
00000240: 2089 d93d c0e4 653e b80b 80bc 8546 113e
00000250: 9ed2 9abb 4172 383d 3899 f6bd bbf4 9b3d
00000260: 71be 31be a236 1f3e fc53 22bd 8a6d 09be
00000270: c67b 2e3d 767e 973d 5858 283e 862a a0bd
00000280: a99f 3fbc 2f3f b03c 347c 8b3c de97 8b3b
00000290: 3b1c 75bc 6c58 e9bb 6d91 03bc e875 14bb
000002a0: 270f 3dbc 2802 c2bc b3e8 d8bb e41e 27ba
000002b0: 985c 3d3d 0654 fe3c 4e96 c1bb a992 7e3e
000002c0: 3104 0cbe 5e96 92be 42ce 113e c255 6e3e
000002d0: 9a7a d5bd 85e3 da3c b9c7 a1bc b821 b03c
000002e0: f12b 37bc 0a23 96bc 7514 50bb 8003 7e3c
000002f0: 83b9 19bd fbb6 653d b4ce e3bc c05d 143c
00000300: eca1 d23c 5441 3cbd 2d2e 99bd b837 d53d
00000310: 2b1c 33be 72b2 30be 4960 343e 5977 f43d
00000320: d1f4 6cbd 4311 79bd 941b dd3d 1edf a6bd
00000330: 894d ecbd e12c cb3d edaf 463c 3f9a 1a3e
00000340: 2782 62bd 7d8f 72bc e188 afbb 6ad1 eebb
00000350: 8b7c 26bd c1d9 4fbd 86c4 f8bd b40f 533e
00000360: 1a0b a13d 6645 a5be d6ff 613d 2442 703e
00000370: 47f1 9cbd d933 78be 9108 5c3e 8642 11be
00000380: 6bf5 0abd a1b1 bcbd 05d0 a8bd 6e52 2c3d
00000390: edbf 02be 9e10 113e 023e 083d e4db 63be
000003a0: 94b0 283e abcd 01be 5c85 393b c0cd ea3d
000003b0: ddc1 383e 67b4 6ebe 20b0 79bd 9cb8 a9bd
000003c0: 84a2 903b adb5 e2bc a81b 82bd 079d 313d
000003d0: 4025 fd3b 0ec3 42bd fe41 c3bc a645 05bd
000003e0: e589 babc 7bd2 6a3d daa8 72bb a0e5 963d
000003f0: b06f aabd 9276 4b3e ec7f 44bd 723a a33c
0.03189468 0.061397485 0.023422789 0.03364056 -0.013912129 -0.0121827135 0.009201008 -0.004692143
-0.010482924 0.013581436 0.05346806 -0.02672605 0.015455971 0.030071653 -0.117302634 0.17012504
-0.043315277 0.11175642 -0.15592434 -0.23965012 0.11520781 0.019582348 0.04232985 -0.10434119
0.09360591 -0.008819608 0.08950141 -0.045689043 0.13073133 -0.05814104 0.116898894 0.093139835
-0.13150151 0.1192028 0.08522486 -0.14852573 -0.07541908 0.1481763 -0.055520754 0.07133758
-0.024689289 0.05201175 0.06364323 -0.059258103 0.025645174 0.03897188 0.041663263 -0.01805102
9.887882e-05 0.017003428 0.016865963 -0.048351146 0.06152926 -0.031099083 -0.0767174 0.07944346
0.117876306 -0.096148826 -0.04184198 0.29270467 -0.010627026 0.012630081 -0.0011727425 -0.0013695485
0.0082584135 0.0016486695 -0.002141737 -0.0006451127 0.0050626793 0.004666839 0.006632941 -0.0074888156
0.053483523 0.004242184 -0.003574861 0.086161256 -0.03517965 -0.037702873 -0.01678892 -0.36316934
0.07417831 -0.14803457 0.08006893 0.05647664 -0.08183926 0.07255844 0.07024835 0.036920175
-0.09593256 0.14129063 -0.19721276 -0.022799212 -0.06831266 -0.10794602 -0.0034847688 0.0651597
-0.08835181 0.1698252 0.0658279 -0.15754502 -0.015439397 -0.068239875 -0.016947 0.039478254
-0.043518014 -0.011905438 0.0028057222 -0.01647924 0.010484808 0.005438157 -0.031507116 0.009713048
-0.014938336 -0.08943258 -0.00037997143 0.074243136 0.115752436 -0.03314873 -0.15719487 -0.32959053
0.11695583 -0.036075294 -0.20961878 0.037481826 0.11154881 -0.06803416 -0.09066617 0.110855006
-0.1637698 0.1343343 0.083292924 -0.044756647 -0.20459662 0.104011886 0.08513065 -0.07470157
0.1288371 -0.058694154 0.023887586 -0.1687191 -0.16321643 -0.050811626 -0.15355615 0.28016192
0.10621858 0.22450542 -0.015630588 0.14187057 -0.0047248146 0.045030836 -0.12040943 0.07615038
-0.17357804 0.15548185 -0.039630875 -0.13420692 0.04259851 0.073971674 0.1643995 -0.07820611
-0.011695781 0.021514503 0.017026998 0.0042600473 -0.014960344 -0.0071211364 -0.008030278 -0.0022653285
-0.011539257 -0.023682669 -0.006619537 -0.00063751475 0.046230882 0.031045925 -0.0059078103 0.24860634
-0.13673474 -0.28630346 0.14238837 0.23274902 -0.10423775 0.026719818 -0.019748555 0.021500453
-0.01117991 -0.018327255 -0.0031750475 0.015503764 -0.037530433 0.056082707 -0.027808525 0.009055555
0.025711976 -0.04596074 -0.074795105 0.10411018 -0.17491214 -0.17255571 0.17614855 0.11936826
-0.057850663 -0.060807478 0.10796276 -0.08148025 -0.11538226 0.09920669 0.012126905 0.15097903
-0.055299904 -0.014804718 -0.0053568934 -0.0072881477 -0.040646117 -0.050744776 -0.12146859 0.20611459
0.078634456 -0.3227951 0.055175625 0.2346273 -0.076632075 -0.24238528 0.21487643 -0.14185533
-0.033925455 -0.092135675 -0.082428016 0.0420708 -0.12768526 0.14166495 0.03326226 -0.2225185
0.16473609 -0.12676112 0.0028308248 0.11465025 0.18042703 -0.23311006 -0.06095898 -0.082871646
0.0044139046 -0.02767452 -0.06352931 0.043362644 0.007725388 -0.0475493 -0.023835178 -0.032537125
-0.022770831 0.057329636 -0.0037026913 0.07368016 -0.08322084 0.1986945 -0.04797356 0.01992533

bias f4 [200]
00000000: cb8a 00be f95b 063e 1030 2c3e b33f cebb
00000010: 671e 1f3d 3c97 d33d 570c 533e 36bd 39be
00000020: 790e b03d 614c f0bc 16f8 023e d8b9 8e3e
00000030: 65e5 9a3e c65e da3d bab1 8e3e abf8 e3bc
00000040: 5288 47bc 6d79 84bd 5de4 263e 73a7 a5bc
00000050: 0fc1 083e de2d 9ebd 54dd 463e ea88 233d
00000060: 3932 823d 00c9 053e 8d94 56be 3fcf a4bd
00000070: 8007 ea3d a232 9d3b 1be7 5f3e ef3c 653e
00000080: f9eb 7f3e e34a e03c a85c 903e ce6a 8fbd
00000090: 1e11 86bd 5644 883e a814 a8bd 14ff 783e
000000a0: 898c b53e 34a4 88bd cffa cd3b 8552 5a3e
000000b0: 5e88 69be 070b 6abe d76b eb3b 1aa9 2a3e
000000c0: 895f 5b3e d258 2ebd 0ab8 ddbc fc9e da3a
000000d0: e484 1cbd fc1a c53d 02b8 273e 7e04 26be
000000e0: 290f d23d ee1a 433e abcf 0b3e 1404 123e
000000f0: 803a ad3e 2954 723e e0ff e23a 6704 6ebd
00000100: 104b 3dbd 2829 4a3e 6704 34be 0f9c debd
00000110: b989 a93e b720 183e a495 013e bbed 503e
00000120: dbbe 91be 095d 15bd 4cb9 2e3e f65b 8d3d
00000130: e509 8cbe 9d4d 183e 4e39 c2bd 3c3f 34be
00000140: 4ad0 d43d 7e01 05be cf83 a83e 0929 cebd
00000150: 51a0 293e df4c 6cbe 4fb8 743a aaa7 a03e
00000160: e41e 04be ed7b 21be 5e2c 52be 6963 5bbe
00000170: a471 9fb9 d5ca 583e 1510 843e 9d23 0a3d
00000180: 157e 87be 3273 0b3e c45c 183e d141 1cbd
00000190: f3d9 10bb e5a9 1fbe acc8 0abd 36ac 1d3e
000001a0: 9618 5abd 12a5 913d 2169 4d3e 7f80 563c
000001b0: 37f5 eabd 5778 0abe 352a 07bd 4ca4 d93d
000001c0: e925 dbbd 2b7e 6d3e 08e0 633c 3224 8f3e
000001d0: 2828 9b3c 0c0b cb3c df1c 163e a8f7 ebbc
000001e0: 350a acbd 640a 9fbd 6e71 a43e ca4c 873e
000001f0: bd5f de3d 4f55 0f3d 659f 263c b59b ce3d
00000200: 80a1 d1bd 8f57 503e c32f 943c dcba 483e
00000210: 81a0 14be bccd 27be ca4c a63d f1f5 5e3d
00000220: 7e11 b5bc 75b1 39be c1b7 2ebe c231 9d3e
00000230: 051a 633d 7374 f53d 1d4c 7b3e a2b3 b53e
00000240: a060 083e f27a 0ebe bff5 78bd c50e 233e
00000250: 9919 3d3e 96a3 6abd d3ff 0c3e d0dd 283d
00000260: 8f7a 46bd 8bbe 31be 6a5f 3c3e 31d0 5e3d
00000270: cb90 063e 403b 44bd e81f 443e 8773 b2bb
00000280: d37f 94bd 7dfb 0e3a 014d 80be 54de f73d
00000290: 0451 243e 197a 33be 0404 74be bc7a 53be
000002a0: def5 4c3e 0cb0 943d 42e9 dfbd f26a 9ebd
000002b0: 16b1 ee3b 5314 533d c57e 9abc 7a18 fc3d
000002c0: 3ecf 71bd 7ce5 ae3e 099a 66bb 330b a6bd
000002d0: 0823 d73d d9e7 b33e d5d8 9bbe 0058 283e
000002e0: ff30 98bd 30e6 903e ad18 93be 1d6f 353d
000002f0: b0c6 663e fed7 aabd 1b62 f0bd 14c1 07be
00000300: 0425 62be 4a8d aabd 2b1c 303d a5b6 d0bb
00000310: 91f5 843e cf14 a03e 04d5 c5bd fe42 9ebd
-0.12552945 0.13121022 0.1681521 -0.0062942146 0.038847353 0.1033158 0.20610176 -0.18138584
0.085965104 -0.029333295 0.1278995 0.27876163 0.3025314 0.10662608 0.2786997 -0.027828535
-0.012178497 -0.06468473 0.16298051 -0.020221448 0.13354896 -0.07723592 0.19420367 0.039925493
0.063572355 0.13064957 -0.20955105 -0.080473416 0.11427212 0.0047972957 0.21865503 0.22386526
0.2499236 0.027379459 0.2819569 -0.07002793 -0.065462336 0.26614636 -0.08207065 0.24316055
0.35458782 -0.06671944 0.006286002 0.21320541 -0.22805926 -0.22855769 0.0071844864 0.1666607
0.21423163 -0.042565174 -0.027065296 0.0016679461 -0.038212672 0.096242875 0.16378787 -0.16212651
0.10256798 0.19053242 0.13653438 0.14259368 0.33833694 0.23664917 0.0017318688 -0.058109667
-0.046214163 0.19742262 -0.17579804 -0.108696096 0.33112887 0.1485623 0.1265474 0.20403187
-0.28465924 -0.03646568 0.17062873 0.06902306 -0.273513 0.14873357 -0.09483586 -0.17602247
0.103912905 -0.1298885 0.32913062 -0.100664206 0.16565062 -0.23076199 0.00093353254 0.31377918
-0.12902409 -0.1576993 -0.20524737 -0.2142464 -0.00030411512 0.21171124 0.2579352 0.03372537
-0.2646338 0.13618162 0.14879137 -0.038148705 -0.0022102564 -0.15592153 -0.033882782 0.15397725
-0.053246103 0.07111563 0.20059635 0.013092159 -0.11472552 -0.13522469 -0.032999236 0.1062704
-0.1070059 0.2319266 0.013908394 0.27957302 0.018940046 0.024785541 0.14659451 -0.028804615
-0.08400384 -0.07765654 0.3211779 0.26425773 0.108581044 0.034993466 0.010169839 0.100882925
-0.10235882 0.20345901 0.01808918 0.19602531 -0.14514352 -0.16387075 0.08120115 0.054433767
-0.022103067 -0.181341 -0.17062284 0.30702025 0.055444736 0.119851016 0.24540754 0.3548861
0.1331811 -0.13914087 -0.060781237 0.15923603 0.18466796 -0.057284914 0.13769464 0.041227162
-0.048456725 -0.17357843 0.18395773 0.054397766 0.13141172 -0.047908068 0.19152796 -0.005445901
-0.07250943 0.0005454345 -0.2505875 0.121029526 0.1604653 -0.17527045 -0.23829657 -0.20652288
0.20015666 0.07260141 -0.10933162 -0.07735242 0.007284294 0.051533055 -0.018859277 0.12309356
-0.059035532 0.34159458 -0.0035187027 -0.08107605 0.105047286 0.35137823 -0.30438867 0.1643982
-0.0743122 0.2830062 -0.28729764 0.04429542 0.22536731 -0.083419785 -0.11737462 -0.13257247
-0.22084433 -0.0832773 0.042995613 -0.006369429 0.25968602 0.31265876 -0.0965977 -0.077276215

weight f4 [200]
00000000: 50a5 773f 70a5 7c3f c1d8 823f 9721 7c3f
00000010: ed04 7a3f c050 803f 3727 803f 1db4 803f
00000020: 07a6 813f 50a9 843f fc45 7d3f d080 863f
00000030: ab26 713f 67f2 783f 11e0 7c3f 45b3 813f
00000040: 205b 7e3f a956 7c3f bda2 793f 18b3 893f
00000050: a291 773f fbc2 7c3f 5714 7e3f 2735 803f
00000060: 8e0b 7d3f e2c9 803f e94f 803f 280e 743f
00000070: 8fa7 773f 2bbf 833f 134e 813f 5607 7f3f
00000080: 2907 813f 7590 763f c595 833f 73ae 7b3f
00000090: ca8c 7e3f fcda 7f3f 8732 7e3f 0d05 783f
000000a0: 7a2f 7b3f 5731 733f cc8c 723f b2ee 753f
000000b0: 0fcc 743f 4a2f 7b3f f990 813f 9030 803f
000000c0: e046 7f3f 6db7 7b3f 7037 803f 45f3 753f
000000d0: 493b 7f3f 5028 823f 638d 823f 1ff3 7d3f
000000e0: 9964 783f 4473 813f fe9f 803f b3a3 783f
000000f0: 6ac6 703f de05 843f d2eb 7c3f 60c6 7a3f
00000100: dc92 783f e76a 803f 374b 753f ad84 833f
00000110: 322a 853f d7bb 823f d45a 823f 36e9 803f
00000120: 8468 7a3f 0899 7a3f 6ac2 833f da34 823f
00000130: 2dca 7f3f 68a4 7b3f 08e5 813f 265a 803f
00000140: b197 783f 81ef 813f 65a0 7e3f 4b93 7b3f
00000150: aeb1 703f 2081 753f 3479 803f eccd 863f
00000160: ceb3 813f bb24 783f 5a8d 7f3f 3eb0 743f
00000170: 41be 813f a580 803f 8bf8 833f 2786 833f
00000180: 0110 813f feff 753f ab5e 7f3f e1c2 753f
00000190: 2639 743f e332 853f 6de6 813f 8011 803f
000001a0: 1d55 863f 9755 743f 5f2e 7d3f d3be 803f
000001b0: 6e37 763f a2ae 833f 2821 803f 00f3 823f
000001c0: 9fb7 853f cd3c 813f cfaf 813f 2266 7f3f
000001d0: fb39 783f 456f 873f e49f 7e3f 263d 793f
000001e0: f557 7c3f f58f 6f3f 5e62 773f d794 803f
000001f0: 2f25 803f 6bdb 803f a6dd 7f3f 9c3d 813f
00000200: 26cc 7e3f bad4 7f3f dd1e 753f b2df 7e3f
00000210: 8f11 863f b9f7 783f 46f6 823f 425c 7b3f
00000220: bf7f 813f ad52 7e3f 749f 793f ef15 793f
00000230: 5a15 813f d55c 7a3f f515 833f 9f15 7b3f
00000240: a282 803f 675d 803f 0b12 883f ca28 833f
00000250: a548 773f 5b54 823f 2c62 853f 6874 7b3f
00000260: aed6 793f 2196 803f defa 7f3f 5df8 7f3f
00000270: cd25 7e3f 7442 763f 3e80 7c3f 3ebc 823f
00000280: f6e1 803f 0735 7f3f 8f15 7b3f 0da4 7f3f
00000290: 50e5 7b3f 29ab 813f 8c3f 7f3f fb28 803f
000002a0: cba1 743f f923 7e3f ebc5 853f 0d6a 7f3f
000002b0: ba88 8c3f 7a92 7f3f b419 833f fb68 773f
000002c0: b508 823f 4ae2 813f 327b 7e3f 0aba 833f
000002d0: 5240 7f3f e05e 823f f60c 7f3f 2a0b 823f
000002e0: 11f6 803f 935d 7f3f a43b 703f c183 793f
000002f0: 21a9 7d3f 3aea 803f a84e 813f 900f 803f
00000300: e1c9 7e3f f9be 823f 9616 803f 7f5a 7e3f
00000310: 0cf9 7b3f 6705 823f ca73 803f 80e7 7d3f
0.9673662 0.9868994 1.0222398 0.98488754 0.97663766 1.0024643 1.0011967 1.0054966
1.0128793 1.036417 0.9893491 1.050806 0.9419963 0.97244877 0.987794 1.0132834
0.99357796 0.9856973 0.97513944 1.075778 0.96706593 0.98735017 0.99249786 1.0016221
0.98845756 1.006161 1.0024387 0.953341 0.9674005 1.0292715 1.0101951 0.9962057
1.008031 0.96314174 1.0280081 0.98313063 0.9943358 0.9994352 0.9929585 0.96882707
0.9811932 0.9499716 0.9474609 0.96067345 0.9562387 0.9811903 1.0122367 1.001482
0.9971752 0.9832676 1.0016918 0.96074325 0.99699837 1.0168552 1.0199398 0.991991
0.970285 1.0113301 1.0048826 0.97124785 0.94052756 1.031429 0.98797333 0.97958946
0.9709909 1.0032624 0.95817894 1.0274864 1.0403502 1.0213574 1.0183969 1.007117
0.9781573 0.9788976 1.0293705 1.0172379 0.9991787 0.9829774 1.014802 1.0027511
0.9710646 1.0151216 0.9946349 0.98271626 0.9402112 0.95900154 1.0036988 1.0531592
1.0132997 0.96931046 0.9982506 0.95581424 1.0136186 1.0039259 1.0310224 1.0275315
1.0083009 0.9609374 0.99753827 0.96000487 0.953997 1.0406154 1.0148445 1.000534
1.0494725 0.954431 0.9889888 1.0058235 0.9617833 1.0287669 1.0010118 1.0230408
1.0446662 1.009668 1.0131778 0.9976522 0.9696347 1.0580832 0.99462724 0.9735893
0.9857171 0.93579036 0.9663447 1.0045422 1.0011348 1.0066961 0.99947584 1.0096927
0.99530256 0.9993397 0.9575022 0.9956008 1.0474108 0.97252995 1.0231407 0.9818765
1.011711 0.99344903 0.9750893 0.97299093 1.0084641 0.977979 1.0241076 0.98079866
1.0039866 1.0028504 1.0630506 1.0246823 0.9659522 1.0181993 1.0420585 0.98224497
0.975932 1.0045816 0.9999217 0.9998835 0.9927643 0.9619515 0.9863318 1.0213697
1.0068958 0.9969029 0.9807977 0.99859697 0.9839678 1.0130359 0.9970634 1.0012506
0.95559376 0.9927364 1.0451025 0.99771196 1.0979226 0.9983288 1.0242219 0.9664456
1.0158907 1.0147183 0.9940673 1.029115 0.9970752 1.0185204 0.9962915 1.0159657
1.0075094 0.9975216 0.93841004 0.97466666 0.99086195 1.007148 1.0102129 1.0004749
0.9952679 1.021453 1.0006893 0.99356836 0.9842689 1.0157899 1.0035336 0.99181366

bias f4 [200]
00000000: 8348 5a3d 1e83 8abd 4f1a 3cbd ac65 6c3d
00000010: cae7 4cbd d8c1 6b3d 42eb 103d 55df d73d
00000020: 4fc9 993d 5d29 2abd a8a4 14bd 0a20 7a3d
00000030: ae7c 793d 9fdc 733d 60b4 5cbd e3a7 31bd
00000040: 7495 a33d f38b bbbc 918b 7d3d 1016 573d
00000050: 2da5 013d 0371 843d d41e 5ebd cef3 083d
00000060: fa61 743d 24fa af3d 30dc 8dbd 1157 51bd
00000070: 1fd9 0cbd 073f 8b3d 3f16 213d d5bd 5c3d
00000080: 318f e83b d022 e4bb 1ac1 8b3d 7632 52bd
00000090: 4b11 6c3d 5e73 afbc e88f d4bc 09de 263d
000000a0: 7fcb b33c 28c0 2c3d f672 5fbc ca48 923c
000000b0: 0e58 03bd f0c6 ea3c b665 4d3d b69b b13d
000000c0: d178 4e3d 0a03 903d a3cd cd3d 756e d83c
000000d0: bd8c 43bd 6e6d d73d b693 733d 6b6d 0c3d
000000e0: 654f b83d 201b 71bd cab3 193d ee48 11bd
000000f0: 89a3 593d f212 6e3d 39ca b83c ae07 543d
00000100: ecd7 68bd 459e 683d 42bc 5dbc 24fa 15bd
00000110: 2bf5 a33d e534 6a3d d2a1 ccbb b5bc 433d
00000120: db40 c3bc b691 af3c 80fe 023d bde4 423d
00000130: 21a7 02bd 0fab 653d 8a4a 853d ad9c debc
00000140: 8122 afbd e4f9 0d3c abc4 293c 1b40 993d
00000150: a8d3 08bd 2714 1abd bb4f fbbc a994 be3d
00000160: 24b4 47bd df2d 84bc 0e06 82bc 0619 4abd
00000170: 95e2 ec3d 57a1 4b3d cb35 043c bded 533d
00000180: 5419 e9bc 3f62 093d 9108 51bd aa46 ac3b
00000190: c005 b8bc 18a3 153d cc14 3abd 8678 5fba
000001a0: 4148 0b3e 85c4 b8bc 8400 973d 8f72 62bd
000001b0: 8be7 2f3b 0b2e 983d 514b 713a 89b6 6dbc
000001c0: 97d8 ce3d bc8e f2bc 1a41 31bd 3a3e e63d
000001d0: 4f24 903c 367f 073c de2d 1bbd 8c6a 8cbd
000001e0: 3c36 babd 8c92 633d 75e6 d03c 0ffc 383c
000001f0: 582b 39bd f62f 503d 9353 91bd 53a8 633d
00000200: 8a4c 5cbd 6950 053c d7f5 99bd afb2 f03c
00000210: 0046 52bd 2f64 d93a 8b42 62bd 3731 723d
00000220: 05da 21bd c3ef ecbc 82ec acbc e7a0 883c
00000230: 995a 0f3d 0f21 293d c9ad 3bbd af2c 9a3d
00000240: c205 b2bc fe11 95bd 7e1f 033e eaf1 793d
00000250: 25a9 dfbb cd9b eabc 28aa 273d ed14 0e3d
00000260: 2e0f 8bbc 648a 69bd 725f 78bd 5723 ca3c
00000270: 7bd8 02bd 5555 08bd 8c91 62bc 28e3 80bd
00000280: 2a15 713d 2d88 1ebd aea8 4ebd 7cb9 6abd
00000290: 85e1 393c ef6b 3abd 4dae d3bc ecac 55bd
000002a0: c690 1c3d d39c 22bd 346a 713d 60f5 e1bb
000002b0: 0b97 553d 9415 42bd c98d 34bd ba09 81bd
000002c0: f6e6 43bc e4e3 6d3d 76e6 0e3c e4f8 e63c
000002d0: 1759 96bd cbaf 903d ce25 69bd dc8d 3b3d
000002e0: d1be 3abd 719a b23d 18ff 22bd c790 ecbc
000002f0: 36ae e9bc e349 0f3d 6a09 84bd 80ff 37bb
00000300: 2287 d1bb 8700 21bc 1dcd 1ebd 94e1 8c3d
00000310: 9e5a 4dbd a345 053d 10af 70bd c5b5 1d3c
0.05329181 -0.0676329 -0.045923527 0.05771415 -0.05002574 0.05755791 0.03538061 0.10540644
0.075091 -0.041543353 -0.03628984 0.06106571 0.06090992 0.059536573 -0.053882957 -0.043373
0.0798749 -0.022893881 0.06190068 0.052511275 0.031651665 0.06466868 -0.05422862 0.033435635
0.05966375 0.085926324 -0.06926763 -0.051108424 -0.03438675 0.06799131 0.039327856 0.053891975
0.007097148 -0.006962158 0.068239406 -0.051317655 0.05763368 -0.021417316 -0.025947526 0.040739093
0.02194762 0.042175442 -0.013638249 0.017856974 -0.032066397 0.028659314 0.050145827 0.08672278
0.05040819 0.0703183 0.10048988 0.026419858 -0.04774164 0.10518919 0.05946704 0.034284037
0.08999518 -0.05886376 0.037524976 -0.03546994 0.053134475 0.058123536 0.022557365 0.051765136
-0.056846544 0.056791563 -0.013533654 -0.036615506 0.080057465 0.05717935 -0.0062448764 0.047787387
-0.023834636 0.021431785 0.03198099 0.047581423 -0.031897668 0.056071337 0.06508358 -0.027174318
-0.08551503 0.008665536 0.010361831 0.0748293 -0.033404976 -0.037616875 -0.030677667 0.093056984
-0.04875578 -0.016135154 -0.015872028 -0.04934027 0.115666546 0.049714413 0.008069466 0.051740397
-0.02845446 0.03354096 -0.05103356 0.0052574473 -0.02246368 0.03653249 -0.04542999 -0.00085247343
0.13601781 -0.022554645 0.07373145 -0.055285033 0.0026840891 0.07430657 0.00092046434 -0.014508852
0.10099905 -0.029609077 -0.043274976 0.112423375 0.017595438 0.008270076 -0.03788554 -0.0685626
-0.09092376 0.05555968 0.025500515 0.011290564 -0.04520735 0.05082699 -0.07096019 0.05558045
-0.05378393 0.008136847 -0.07517593 0.029382078 -0.05133629 0.0016585643 -0.05523924 0.059128966
-0.03951456 -0.028922921 -0.02110887 0.016678287 0.03499851 0.041291293 -0.04582003 0.07528054
-0.021731261 -0.07278822 0.12804982 0.061021723 -0.0068255835 -0.028638745 0.040933758 0.034687925
-0.016975012 -0.057016745 -0.0606379 0.024675054 -0.031944733 -0.033284504 -0.013828646 -0.062933266
0.058858074 -0.038704086 -0.050453834 -0.057305798 0.011345272 -0.04551309 -0.025839949 -0.052166864
0.038224004 -0.03970034 0.058939174 -0.006895706 0.052146 -0.04738386 -0.04408053 -0.06300683
-0.011956921 0.05807866 0.008721938 0.028194852 -0.07341211 0.0706478 -0.05692082 0.045789585
-0.045592133 0.087208636 -0.039794058 -0.028877629 -0.028525453 0.034982573 -0.06447108 -0.0028075874
-0.006394283 -0.009826786 -0.03876983 0.06878963 -0.050135247 0.032537114 -0.058760703 0.009625857

running_mean f4 [200]
00000000: dc63 653d 22b8 363e 7130 543e cbc8 293e
00000010: baf9 7c3e 58e5 9b3e 5728 9b3e 42a0 2a3e
00000020: eab3 003e f61a c33d 2e20 983e 8d77 2b3f
00000030: f7b9 c33e 2244 a43e ba37 923e aea3 3a3e
00000040: c5ca 803e 369e c33d d3e7 af3e 68c3 893d
00000050: 9806 bf3e e400 0c3e 96b6 403e df1c 273e
00000060: a1aa 393e 3260 9d3e 0435 7e3d e09e f43d
00000070: ff93 4b3e b0fd 323e 5b8d aa3e 6192 9c3e
00000080: 046d fb3e 2bcc 263e 34f1 0a3f 529b 883e
00000090: d904 963e 67a2 8a3e c2dd df3d e538 d23e
000000a0: d5e5 0e3f 1db4 533e c596 423e 07de 883e
000000b0: 0d0c 023e 50d0 863e e570 843e c185 ab3e
000000c0: 6fe0 a33e 834d d53d 74ee 4a3e 1b97 c13e
000000d0: 907f 0b3e ec14 743e c02c b33e 002a b13d
000000e0: 76b9 9b3e b6df 6c3e 4356 8e3e deca 523e
000000f0: 9001 f63e 9e17 c23e c0fd 853e b0b3 593e
00000100: dbb0 663e a7a4 d03e 321b 433e e1eb 153e
00000110: bb87 d93e 1abb b53e e53e 243e 9312 c23e
00000120: 26b9 bc3d 4ab0 333e d6f6 8c3e 1dcf 8d3e
00000130: d482 f13d a1b9 e73e ddcd b33d 5840 343e
00000140: a8cc 3d3e 258c be3d 91dc e53e ebcc 2b3e
00000150: e393 823e f08b 203e cdf4 eb3d 99cf d23e
00000160: 2bb1 123e 26c3 ec3d 9217 b63d 7cd5 d93d
00000170: 2a3c f93d 61e1 9e3e f043 af3e 8fa4 6d3e
00000180: e038 0d3d 4060 ad3e 2332 843e 5a38 403e
00000190: 0089 313e 5c22 193e d400 013e 399a 823e
000001a0: 0148 df3d bcff 863e af81 bd3e cd6b 183e
000001b0: 8653 253e 2186 953e 5b94 563e b4b5 c93e
000001c0: 8c8d c23d 8a8f 7c3e bfc1 2e3e 7f30 a13e
000001d0: 9f05 703e 10c6 eb3d e5b1 2a3e f59c 133e
000001e0: bfe1 463d c752 db3d 9950 033f ddaf 163f
000001f0: d598 5f3e 10a5 8b3e 649a 193e ad4b b33e
00000200: aa5a 433e 9ec7 923e dc52 513e b7dd 9a3e
00000210: cad3 613e f2a9 ce3d 3eba 633e 6c43 903e
00000220: 3933 323e 71f0 ff3d edb9 233e 6d4c 943e
00000230: 5458 7c3e 32f4 b13e 8620 a33e 2dc5 fc3e
00000240: 43f3 a33e 6922 0f3e 6a6e d73d f21b 8b3e
00000250: 8d27 5f3e d666 1b3e a8c4 933e 443b 893e
00000260: 5ab3 063e 7055 e43d 277b 963e d423 303e
00000270: 67db b33e 82b9 483e 65dd 5c3e 2189 433e
00000280: 35f8 293e 5945 4b3e 3c2f f23d 7831 303e
00000290: d233 aa3e 8deb 0a3e 68ca cc3d 7722 023e
000002a0: 66d1 973e 4074 073e 80d2 513d 0a3b 533e
000002b0: eb30 ba3d 052c 223e d3c6 3e3e 7508 483e
000002c0: f87f 403e 1034 f93e 2421 503e 73a6 633e
000002d0: ff50 3a3e 323e 1a3f 85ab c73d 58d0 ba3e
000002e0: a22e 183e e2cd 0b3f f4a5 923d 02e4 2d3e
000002f0: 0d90 d83e 3a58 6f3e 04d3 103e 1f3e f63d
00000300: dde9 583d 6a8e fe3d 50e3 023e 8342 523e
00000310: ac7f 923e 3674 c03e 78b6 c13d 8db9 6c3e
0.056003436 0.17843679 0.20721604 0.16580503 0.24704638 0.30448413 0.30304214 0.16662696
0.12568632 0.09526627 0.2971205 0.66979295 0.38227817 0.3208323 0.2855814 0.18226501
0.251547 0.09551661 0.34356555 0.06726724 0.37309718 0.13672215 0.18819651 0.16319607
0.18131496 0.30737454 0.06206228 0.119443655 0.19880675 0.17479587 0.3331097 0.30580428
0.4910661 0.16288821 0.54274297 0.26681 0.29300573 0.27077028 0.10930969 0.41059032
0.55819446 0.20674177 0.19002827 0.26731893 0.1269991 0.26330805 0.25867382 0.33500484
0.32007167 0.10415175 0.19817525 0.37810597 0.1362288 0.23836106 0.3499508 0.08650589
0.30414933 0.23132214 0.27800187 0.205852 0.48048067 0.37908643 0.26170158 0.21259952
0.22528403 0.4075062 0.19053343 0.14640762 0.42486367 0.3549431 0.16039617 0.37904796
0.09215002 0.17547718 0.2753207 0.27697077 0.117925316 0.4525881 0.087795 0.1760267
0.18535101 0.09304074 0.4489484 0.16777389 0.25503454 0.15678382 0.115213014 0.4117401
0.14325397 0.11560659 0.088912144 0.10636422 0.121696785 0.31031325 0.3423152 0.23207305
0.03447807 0.33862495 0.258195 0.18771496 0.17337418 0.14954513 0.12597972 0.25508288
0.109024055 0.26366985 0.37013003 0.14884873 0.16145143 0.29203895 0.2095503 0.3939644
0.09499654 0.24664131 0.17066096 0.31482312 0.23439644 0.11512387 0.16669424 0.14415343
0.048555132 0.10709148 0.5129486 0.58862096 0.21835645 0.2727437 0.15000302 0.35018674
0.19077554 0.2866792 0.20441765 0.3024728 0.22053447 0.10091008 0.22239015 0.2817644
0.17402352 0.124970324 0.15988894 0.28964558 0.2464307 0.3475662 0.3186075 0.49369183
0.3202153 0.1397797 0.10519107 0.27169758 0.21792431 0.15175948 0.28860974 0.2680303
0.13154355 0.111491084 0.29390833 0.17201167 0.35128328 0.19602016 0.2156883 0.1909528
0.1659859 0.19850673 0.118254155 0.17206371 0.3324266 0.13566418 0.099995434 0.1270846
0.29651946 0.1322794 0.05122614 0.2062799 0.090913616 0.15837105 0.18630533 0.19534476
0.18798816 0.48672533 0.20325142 0.22231464 0.1819496 0.6025115 0.09749512 0.3648708
0.14861539 0.5461103 0.07160559 0.1698151 0.42297402 0.233735 0.14142996 0.120235674
0.052957404 0.12429507 0.12782025 0.20533185 0.2861303 0.37588662 0.09458631 0.23117657

running_var f4 [200]
00000000: 2ad2 d53c 37ef a63d 9e6b cb3d 173a a53c
00000010: f531 d03d d193 453d d644 eb3d 7f90 c23d
00000020: 59d2 123e d9c7 553d 7ae4 373e eea7 b93e
00000030: 31cc 9a3d 8111 be3d d008 d23d dfe1 e43d
00000040: b2b4 ed3d a804 273d 8a57 023e 1d79 303d
00000050: 4980 023e 1a45 303d 376e 053e 7ed7 2c3e
00000060: 4f28 6a3d 447d 953d fe53 223d fbd5 bd3d
00000070: 6e8a cd3d ffb1 5d3d 872b c83d aef9 883d
00000080: bfca 243e 182e 743c 6e2d a43e b38c 183e
00000090: d0fa 013e 5a50 233e 7642 2e3c fca7 353e
000000a0: bdb2 113e 0bd0 cd3d ff71 ec3d f5a6 a73d
000000b0: f928 8d3d 33e1 453e 2262 143e e14e 833d
000000c0: 41e1 133d 30c2 ef3c ea64 fe3d d783 123e
000000d0: 9c4f 9a3d d0dc e23d 6fe5 bf3d 499a e73d
000000e0: 566a 643e 4b25 133e 90dc fd3d 2de6 ff3d
000000f0: 022c 1f3e 2d7c 063e 51e1 f53d 6224 933d
00000100: 59b5 fc3d 4213 323e b3cb 013e d16e c73d
00000110: 2d93 233e 85fb bb3d c33a ca3d 352b 443e
00000120: b5f7 803d e3ea 5c3d 6f2f ba3d 126d fa3d
00000130: 2f0f d73d 3f91 1a3e f40c a83c 7682 dc3d
00000140: b1e1 043e 8dea 4b3d b933 3b3e df20 c83d
00000150: 1539 7a3e ad71 aa3d a66a 3d3d 190e 443d
00000160: e278 153e 8186 653d 3936 e53d cffd ad3d
00000170: b06f 733d ed07 de3c dfd5 c63d f6b4 d03d
00000180: b42f ed3c 1aee d93d ff11 863e fc27 1b3e
00000190: a3ef b03d dd42 643d a2d5 7c3d c98b dc3d
000001a0: ca9d a83d 4344 1a3e cbde ee3d c6bf f33d
000001b0: 06d9 553e 1804 353e be6a ae3d 12e1 593e
000001c0: 3b09 b13d 0b59 e33d d5ee ee3d a812 353d
000001d0: 5810 ba3d e14a c83d 3b65 8a3d 9dbf db3d
000001e0: 850e f23b f723 403d 3ea4 573e 7f17 823e
000001f0: b3e2 2d3e ed10 c73d 5e05 d03d e1fd e13d
00000200: 3cbc 2b3e a357 df3d 8b3a 033e a428 4c3d
00000210: 7179 043e 27a4 b73d 9456 3e3e 4383 ad3d
00000220: 8b2b e33d de9c 673d 7d23 b03d 8199 0d3e
00000230: 66f7 a53d 20b3 063e 6150 d43d 1574 253e
00000240: 304c 2e3e 47b7 003e e466 b43d e688 b23d
00000250: c318 b53d 63e6 563d 0610 c53d 4c65 c83d
00000260: deca 023e 28e2 c33d 8c0f 0e3e 696d 583d
00000270: 768c 6e3e 5a3b e03d c423 063e 4fec b13d
00000280: 9d40 673d 1525 f93d de5f 933d 5d70 f23d
00000290: ab24 2c3e 7ff4 d43d d25f c73d dcc8 6f3d
000002a0: 5462 c83d f405 983d 7237 1c3d 3af5 f03d
000002b0: 3523 a83d a369 cf3d 5d0a 093e c851 e73d
000002c0: 233b dc3d 6429 c03d 1d58 ce3d 2d40 c93d
000002d0: 043c 7d3d 6e33 2f3e 8edc 7d3d 7ebc 2b3e
000002e0: f19f 043e d670 373e cd59 703d 4f6f ba3d
000002f0: 69f6 3b3e a2b2 9b3d 2dfa bb3d 223d b53d
00000300: 9f57 9f3d b220 573c 666f 913d cd36 4a3d
00000310: 7689 143e ea2b f53d cced 923d 1421 1c3e
0.02610119 0.08151095 0.09932636 0.020169301 0.101657785 0.04823667 0.11487739 0.09500217
0.14338054 0.052192543 0.1795825 0.36260933 0.07558478 0.09280682 0.10255587 0.11175894
0.116067305 0.040775925 0.12728706 0.043084253 0.1274425 0.04303465 0.13030325 0.16879079
0.057167348 0.07299283 0.039630882 0.09269329 0.10036169 0.05412483 0.09773927 0.066882476
0.16092966 0.014903568 0.3206591 0.14897422 0.12693334 0.1594862 0.010635963 0.17739862
0.1422834 0.10049447 0.115451805 0.081861414 0.068925805 0.19324188 0.1449056 0.06411529
0.03610349 0.0292674 0.124215916 0.14308105 0.075347155 0.11077273 0.09369933 0.113087244
0.22306189 0.14369695 0.123955846 0.124950744 0.15544131 0.13133307 0.12005866 0.07184674
0.12339277 0.17390159 0.12675361 0.097379334 0.15974112 0.09178833 0.09874489 0.19157107
0.06297246 0.053934943 0.090910785 0.12227835 0.10500943 0.1509447 0.020513989 0.10767071
0.1297672 0.049784232 0.1828145 0.09771895 0.24435838 0.08322463 0.046244286 0.047865007
0.14596894 0.056036476 0.11191983 0.08495676 0.059432685 0.027103389 0.097087614 0.101907656
0.02895341 0.106411174 0.26185605 0.15151972 0.08639457 0.05572783 0.061727174 0.107688494
0.08233221 0.15065102 0.11663588 0.11901812 0.20883569 0.17677343 0.08516453 0.21277264
0.08644339 0.11100968 0.11666647 0.044207245 0.090851486 0.09779907 0.067575894 0.10729907
0.007386985 0.0469093 0.21058747 0.2540855 0.1698101 0.09720025 0.10157274 0.11034752
0.16771024 0.10905387 0.12815301 0.049843445 0.12936951 0.089668564 0.18587714 0.08472302
0.110922895 0.056546085 0.08600519 0.13828088 0.08103828 0.13154268 0.103668936 0.16157563
0.1702125 0.12569915 0.08808687 0.087175176 0.088426135 0.052465808 0.09622197 0.09784946
0.127727 0.0956462 0.13873118 0.052838717 0.23295769 0.109488204 0.13099581 0.086876504
0.056458104 0.12165276 0.071960196 0.11837838 0.16810863 0.103981964 0.09735073 0.058541164
0.097843796 0.074230105 0.038138814 0.11765523 0.0820984 0.101275705 0.1338286 0.112948954
0.10753467 0.09382895 0.100754 0.09826694 0.061824813 0.17109463 0.061977915 0.16771123
0.12951638 0.17914137 0.05867939 0.09103262 0.18355717 0.07602431 0.091785766 0.08849551
0.07780384 0.013130354 0.07101326 0.04936867 0.14505562 0.119712666 0.071742624 0.15246993

weight f4 [100, 200]
00000000: aa07 4b3d 8be0 4a3d dfd3 e13c bcaa 91bd
00000010: c388 05bd 1fc7 78bd a204 f0bb 2c63 11bd
00000020: 0f45 f13c edcf 053d cbe4 96bc ca2a b5bc
00000030: 5384 453c 6d7c 2abd e259 b83d 7f28 223d
00000040: d1eb b0bd 188c 5dbc ee11 2fbc b702 333d
00000050: a10e 2bbd 8461 e0bd 0d89 943b d8a1 913d
00000060: 8ae7 42bd acb0 84bc 2bd6 fe3d be2b dcbc
00000070: d663 ba3d d048 e2bc 300d 883d f014 2ebc
00000080: e0c4 4cba a11e b6bd 5e8b 003d 6476 28bd
00000090: f76d 98bd ccf6 32bd 8086 dabc 1999 bbbc
000000a0: ada9 043d f43d 1d3d c661 023d 1951 5dbd
000000b0: 365f 313d 8c8e 813b 2ed5 85bc b6cf 85bd
000000c0: 00c0 93bd 72f3 a1bb 4cac 0ebc 5bf0 94bd
000000d0: bb18 4c3d bcfe 7ebd 15d3 2abd 5da1 b23d
000000e0: dbee 9dbc 3045 e73c 2d4d afbb 6838 913d
000000f0: 3237 ecbc 6fed beb9 04cc a83c 0e5e 54bd
00000100: aabd 123d 9c9d 313d a21f 943d c2e6 973d
00000110: 88e5 e8bc 3fdf b5bd 569f b6bc c580 b1bc
00000120: 06de 043d 14e1 efbb 3273 aabd d4c5 4dbd
00000130: 0065 8b3b 6677 1fbd 4db0 a6bc 3cec 043d
00000140: 864e 403d 8f24 af3d dfe5 0b3d 6e88 3bbd
00000150: acd2 833d ae71 07bd b3f1 5cbb c86e 753c
00000160: 3a47 893d 2b29 e33c d318 2d3d 41fb 443d
00000170: 8e07 7cbd 509c a53c b2c1 22bd 7fdb 023d
00000180: 6510 653d 0b8b 71bd f15b 973d 9532 893d
00000190: 481f a5bc 80c9 68bd fa94 af3d 9612 49bd
000001a0: 7467 52bc 7f2e a23d b6e4 2dbd ec4d a43d
000001b0: bbac b43c de8c c2bc a157 1dbd c79a 12bd
000001c0: 386d b43c 12e0 933d 399d b63d 3572 abbc
000001d0: 8dc3 713d e0d3 863d b65b 77bd 536e bf3d
000001e0: 9ade 153d 1e47 02be 54cd 92bc bc51 993c
000001f0: a115 a23d ad9a a1bc 724f b73b bf8e 303c
00000200: d34f c53d 1931 97bc 33f8 923d 9c50 813c
00000210: 7bfb 883d 22c2 943c 0d9d 493d 75d9 3fbd
00000220: bad5 4e3c af33 a83c db6b e6bc 0603 23bd
00000230: 5df9 b1bd ee23 e9bd cae4 1bbd 3c48 933c
00000240: 6657 00bd 1747 06ba ad34 d33d d629 b3bb
00000250: 4db2 b7bd 1cf1 203d 6caf 28bd 482a ddbd
00000260: 460d 873c 4701 7e3c fb7a 12bd 8ab3 36bd
00000270: e3bf 48bd f019 733d d91f 84bb 867a 03bd
00000280: 2b07 93bd 105f a5bc d8c7 c43c 441c 893d
00000290: b47b 91bd dfce 4f3c 6f61 8b3d 17c0 96bd
000002a0: 22e1 35bd d15b 533d 6537 ed3b 764a 0b3d
000002b0: e6b1 b53b 666d c03d 41ab 653d 3d18 2a3b
000002c0: 7d71 b9bb 4aa3 49bd aa44 483d 6245 f53c
000002d0: 0430 793d 1bf1 01bd 6e0d d73a 8219 923c
000002e0: 9c6d ae3d 5af7 5f3b ded9 903d b516 7f3d
000002f0: 8dce 9f3b 2d08 ebbd 2233 483d 728c b63d
00000300: 5d3e b13c f18a febd d017 cabb 86c0 e8bd
00000310: 2fa6 0a3c 8887 5e3c ec49 ef3c b596 4f3d
00000320: 84f7 763c 38e8 8cbc a000 c13d 0649 13bc
00000330: c9c3 5dbb 9793 1ebd 252e 403d 34ac 1d3d
00000340: 2953 253d fa06 dbbc c70e 6b3d a5f2 77bd
00000350: 62e9 7abc 88fa e0bd 604e 823b 7aa3 ad3d
00000360: ec0f f43c 4d32 cbbc 04b9 fa3a e75b c23d
00000370: 7110 99bd e034 70bd 2801 f83c 281b 0f3d
00000380: ca67 5dbd 2eaa cabd 7236 fc3c 34b5 563c
00000390: 696b 73bb a97c adbd ac3f 1fbd d6a5 41bd
000003a0: 0eea 72bc 551c 463d 414a 37bd 7b40 c43b
000003b0: 93a4 fd3c b9e1 8d3d 0fea 2bbd a78d a7bc
000003c0: 2bab 7fbd 85e3 843c 8579 6ebc db26 d63c
000003d0: a557 85bb 011f d43c f0d0 11bc dfa2 13bd
000003e0: 2ed7 e8bd 40c4 fa3b e3c3 0bbb 0d9b 0abd
000003f0: 5768 c03c 127d 4b3c 4922 6abd be8a 1e3d
0.049567856 0.049530547 0.027566848 -0.07112643 -0.03260113 -0.06073677 -0.007324771 -0.03549497
0.029451875 0.032668997 -0.018419644 -0.02211513 0.012055474 -0.041622568 0.09001519 0.0395894
-0.086387284 -0.0135221705 -0.010685427 0.04370376 -0.041761998 -0.109561 0.0045329393 0.07110947
-0.047584094 -0.016197525 0.12443193 -0.026876327 0.091010734 -0.02762261 0.0664314 -0.010625109
-0.0007811319 -0.08892561 0.03138291 -0.04112853 -0.07442849 -0.043692395 -0.026675463 -0.022900151
0.032388378 0.03838916 0.031831525 -0.05403242 0.04330369 0.0039537605 -0.016337004 -0.06533758
-0.072143555 -0.004942351 -0.008708071 -0.07272407 0.049828272 -0.062254652 -0.04170521 0.08722184
-0.019278934 0.028231233 -0.0053497762 0.07090837 -0.028834913 -0.00036416526 0.020605095 -0.05184751
0.03582541 0.0433632 0.07232596 0.074170604 -0.028429762 -0.088804714 -0.022292774 -0.021667847
0.0324383 -0.0073205326 -0.08322753 -0.05023749 0.0042539835 -0.038932227 -0.020347739 0.032451853
0.046949886 0.08551895 0.03415477 -0.045784406 0.06436667 -0.033067398 -0.00337134 0.014980026
0.067030385 0.027729591 0.042260002 0.048091177 -0.061530642 0.020216137 -0.039735503 0.03194761
0.05592384 -0.058970492 0.07390583 0.06699101 -0.020156518 -0.05683279 0.08573337 -0.04908999
-0.012842048 0.07919025 -0.042454444 0.08022675 0.02205502 -0.023748811 -0.038413648 -0.03579214
0.022024736 0.072204724 0.089167066 -0.020928482 0.059024382 0.06583381 -0.060390197 0.093472145
0.036589243 -0.12722442 -0.017920174 0.018715732 0.07914282 -0.019727075 0.0055941874 0.010776221
0.09634366 -0.018456029 0.071762465 0.015785508 0.06688591 0.018158976 0.04922204 -0.046838243
0.012624199 0.020532457 -0.028127601 -0.039797805 -0.086901404 -0.11383806 -0.038059987 0.01797878
-0.03133335 -0.00051222875 0.103127815 -0.0054676337 -0.08969555 0.03929244 -0.04118292 -0.1079908
0.016485821 0.015503234 -0.035761815 -0.044604816 -0.049011122 0.059350908 -0.004032117 -0.03209927
-0.071791016 -0.02018693 0.024021074 0.06694844 -0.071036726 0.012683599 0.06805693 -0.07360857
-0.044404157 0.051601235 0.0072392696 0.03400656 0.005544889 0.09395866 0.056071524 0.0025954389
-0.005659281 -0.04922799 0.04889361 0.02994031 0.060836807 -0.031724077 0.0016407201 0.017834429
0.08517 0.0034174533 0.07072805 0.062277514 0.0048769177 -0.11476169 0.04887689 0.089135066
0.021636182 -0.12428845 -0.0061673895 -0.11364846 0.008462473 0.013582118 0.029210053 0.050680835
0.015073661 -0.017200574 0.09423947 -0.008989578 -0.003383862 -0.03871497 0.046919007 0.038494304
0.04036251 -0.026736725 0.05738714 -0.06053414 -0.015314432 -0.10985285 0.003976628 0.08478446
0.029792748 -0.024804259 0.0019128625 0.09490185 -0.07473839 -0.058644176 0.030273989 0.034938008
-0.05405406 -0.098957404 0.03078768 0.013104726 -0.003714288 -0.08471043 -0.03887908 -0.047277294
-0.014826311 0.048366863 -0.04474855 0.005989132 0.030962264 0.06927819 -0.041971263 -0.020453287
-0.062419098 0.016221771 -0.01455534 0.026141575 -0.004069286 0.02589369 -0.008899912 -0.036043998
-0.11369167 0.0076527894 -0.0021326474 -0.033839274 0.023487253 0.012419956 -0.057161603 0.038706534

bias f4 [100]
00000000: 9568 e23b 2e5a 903d 988d fcbd ee61 2a3e
00000010: e50c 6c3d f8e3 093e 37bd 343d ce31 9c3d
00000020: 08ed 373c b968 273d 240d 133e baa2 1b3d
00000030: 1288 0ebd 133f c5bd 7b0a 8d3c 750f 263e
00000040: 2304 ff3d 0fb1 b93d 6e38 433c 139e 9a3b
00000050: 9c3c 8dbd 7e66 1abc e809 e33d 1fda 6d3d
00000060: a0cc 1b3d 8b66 afbd e29f d43c 288b 883c
00000070: f731 353d 3fbc d23c f8cf 05bd 1b0c 243d
00000080: 9972 68bc 84cc fcbc a009 633d 3052 553d
00000090: 52ac 69bd 0e91 293d 0f6b 06bd ab39 c53b
000000a0: c098 4f3d 9cb3 0fbe 1b4b b3bd 9584 9b3d
000000b0: 1674 a83d c48c 49bb e48d b33c a075 d43d
000000c0: fbf3 99bd 184c 223d 8853 e2bc 3c5a 8d3d
000000d0: 35a4 043e e735 533e ef9e 733d 2979 ad3d
000000e0: 0b86 12be a265 81bc e13f c7bd 39d2 803d
000000f0: 08d4 c73d e9cd f33c 67e7 4bbc 7470 74bd
00000100: 55dd 11bb c64a 74bd 2dac d4bb 93e7 2f3c
00000110: c683 573e c14c 87bd 4203 bf3d 4935 6a3c
00000120: 22b5 64bd a869 043c a304 063e 4f39 ab3d
00000130: 2966 be3d c863 9b3c 44de 843d 3dc1 58bc
00000140: 6ba5 6bbe 7b94 9e3d 9f56 823d b69f 54bd
00000150: b7f5 643d 869b 7abd a78b 9f3d 81b4 afbd
00000160: 4c89 c03d 756e b4bd 0e22 683d 9cec b43d
00000170: 6a7c d2bc 5448 ddbb b992 a2bd c629 043d
00000180: f659 d43d 468c 19bd 6b62 373e 7be2 113d
0.00690944 0.070484504 -0.12331694 0.1663892 0.057629485 0.1346587 0.04412576 0.07626687
0.011225946 0.040871356 0.14360482 0.037996985 -0.034797736 -0.09631171 0.017216912 0.16216834
0.12451961 0.09066974 0.011915309 0.004718551 -0.06896326 -0.00942385 0.11085874 0.058069345
0.038036942 -0.085644804 0.025955144 0.016667917 0.044237103 0.025724528 -0.032669038 0.040050607
-0.014187478 -0.03085924 0.0554291 0.052080333 -0.057049103 0.0413981 -0.032816943 0.0060188374
0.050682783 -0.1403336 -0.087545596 0.075936474 0.08225267 -0.003075407 0.021918245 0.10373998
-0.07517239 0.03962335 -0.027627721 0.069019765 0.12953265 0.20626031 0.059477743 0.08470375
-0.14308946 -0.015795533 -0.09728981 0.06290097 0.097572386 0.029761272 -0.012445307 -0.059677556
-0.0022257168 -0.059641622 -0.0064902515 0.010736364 0.21046361 -0.066064365 0.09326793 0.014294931
-0.055836804 0.008081831 0.13087706 0.0836054 0.09296829 0.018968478 0.06487706 -0.013229665
-0.2301232 0.07743164 0.06364178 -0.051910125 0.055898394 -0.061183475 0.077903084 -0.0857935
0.09401187 -0.088101305 0.056673102 0.08834192 -0.02569409 -0.006753007 -0.079381414 0.0322664
0.10368721 -0.03748729 0.17908637 0.03561638

weight f4 [100]
00000000: 3ace 433f 485a 323f 9724 563f 5865 2f3f
00000010: 7f60 4f3f 4483 2f3f 913e 2a3f 0cdb 1f3f
00000020: 09bf 2d3f 5130 433f 2fcb 2f3f 9b3e 313f
00000030: 3b67 583f a39b 4d3f b80b 593f 3fa7 293f
00000040: 8fdd 573f a417 2f3f bae5 2c3f 14e7 493f
00000050: e9fc 483f 441e 2b3f 6227 2d3f ff17 2f3f
00000060: 979a 583f 5b57 3d3f 1d69 5f3f bf2e 2b3f
00000070: 5586 2e3f f591 4f3f 0772 603f 7d35 4e3f
00000080: 9041 2c3f 45d4 313f 360d 293f 8bdc 513f
00000090: be7e 413f 07c5 563f 71a3 563f ff3a 583f
000000a0: 8a7f 453f 4464 533f e9c6 563f 83f8 4a3f
000000b0: a8f0 453f 240d 503f d2a2 463f 1c3c 343f
000000c0: 780d 483f a093 283f 46ca 4d3f e79a 263f
000000d0: b580 353f 7791 223f 277b 273f 6555 5f3f
000000e0: 9713 523f 5720 443f 55fc 4e3f 0f83 4d3f
000000f0: 2c4a 243f 95fc 2b3f 66ab 4a3f 77d7 513f
00000100: 1c67 4d3f 4789 583f 60c8 2c3f 9f8f 523f
00000110: a123 253f e369 483f 5e0a 323f 3a7d 293f
00000120: dd57 513f cdf0 503f c6c0 353f 7ec2 323f
00000130: 0ae3 263f 8d46 243f e47d 4b3f 784d 413f
00000140: 8785 3a3f 6ab3 2b3f 25fb 443f 6231 443f
00000150: 9bf1 553f d3da 553f 87fe 283f 997a 4c3f
00000160: 0ef1 303f 7d61 523f f971 383f 2ba2 5a3f
00000170: 0ca4 3d3f 2b79 2b3f 9bbe 573f e6df 223f
00000180: 8486 5d3f e57d 4f3f 2d77 293f 2c55 5a3f
0.7648655 0.6966901 0.8364958 0.68514013 0.81006616 0.6855967 0.6650172 0.62443614
0.6786962 0.762456 0.6866941 0.69236153 0.8453252 0.8031561 0.84783506 0.6627082
0.84322447 0.6839545 0.67538035 0.7886822 0.7851091 0.66843057 0.6763822 0.6839599
0.84610885 0.7396142 0.87269765 0.66868204 0.68173724 0.8108209 0.8767399 0.80550367
0.6728754 0.6946452 0.66035783 0.81977147 0.7558402 0.8389439 0.8384314 0.8446502
0.77147734 0.8257487 0.8389726 0.7928545 0.7732034 0.8127005 0.77592194 0.7040422
0.7814555 0.6585026 0.8038677 0.6508011 0.70899516 0.6350321 0.6542229 0.87239677
0.8206114 0.76611847 0.8085378 0.80278105 0.6417568 0.67182285 0.79167783 0.819694
0.8023546 0.8458447 0.6749325 0.822504 0.6450749 0.7828657 0.6954707 0.66206706
0.81774694 0.8161743 0.70997274 0.6982802 0.65190184 0.6417015 0.7948897 0.7550883
0.72859997 0.6707064 0.76945716 0.7663785 0.83571786 0.83537024 0.6601338 0.7987457
0.6911782 0.82180005 0.7204891 0.854037 0.7407844 0.6698176 0.84275216 0.6362289
0.8653338 0.81051475 0.6619747 0.8528621
